…
r>        <span class="hljs-keyword">return</span> x<br><br>model = paddle.Model(MyNet())<br>model.summary((<span class="hljs-number">1</span>, <span class="hljs-number">3</span>, <span class="hljs-number">224</span>, <span class="hljs-number">224</span>))<br></code></pre></td></tr></table></figure><pre><code class="hljs">[1, 64, 56, 56]--------------------------------------------------------------------------- Layer (type)       Input Shape          Output Shape         Param #    ===========================================================================   Conv2D-21     [[1, 3, 224, 224]]   [1, 64, 112, 112]        9,472       MaxPool2D-5   [[1, 64, 112, 112]]    [1, 64, 56, 56]           0          Conv2D-22     [[1, 64, 56, 56]]     [1, 64, 56, 56]        36,928        Conv2D-23     [[1, 64, 56, 56]]     [1, 128, 28, 28]       73,856        Conv2D-24     [[1, 128, 28, 28]]    [1, 256, 14, 14]       295,168       Conv2D-25     [[1, 256, 14, 14]]     [1, 512, 7, 7]       1,180,160     Flatten-59      [[1, 512, 7, 7]]        [1, 25088]             0          Linear-7         [[1, 25088]]           [1, 64]           1,605,696      Linear-8          [[1, 64]]              [1, 4]              260      ===========================================================================Total params: 3,201,540Trainable params: 3,201,540Non-trainable params: 0---------------------------------------------------------------------------Input size (MB): 0.57Forward/backward pass size (MB): 10.72Params size (MB): 12.21Estimated Total Size (MB): 23.51---------------------------------------------------------
…
