…
ten = paddle.nn.Flatten() self.linear1 = paddle.nn.Linear(in_features=25088, out_features=64) self.linear2 = paddle.nn.Linear(in_features=64, out_features=num_classes) def forward(self, x): x = self.conv1(x) x = F.relu(x) x = self.pool1(x) print(x.shape) x = self.conv2(x) x = F.relu(x) x = self.conv3(x) x = F.relu(x) # # print(x.shape) x = self.conv4(x) x = F.relu(x) x = self.conv5(x) x = F.relu(x) # x = self.conv4(x) # x = F.relu(x) # # print(x.shape) x = self.flatten(x) x = self.linear1(x) x = F.relu(x) x = self.linear2(x) return xmodel = paddle.Model(MyNet())model.summary((1, 3, 224, 224)) [1, 64, 56, 56] --------------------------------------------------------------------------- Layer (type) Input Shape Output Shape Param # =========================================================================== Conv2D-21 [[1, 3, 224, 224]] [1, 64, 112, 112] 9,472 MaxPool2D-5 [[1, 64, 112, 112]] [1, 64, 56, 56] 0 Conv2D-22 [[1, 64, 56, 56]] [1, 64, 56, 56] 36,928 Conv2D-23 [[1, 64, 56, 56]] [1, 128, 28, 28] 73,856 Conv2D-24 [[1, 128, 28, 28]] [1, 256, 14, 14] 295,168 Conv2D-25 [[1, 256, 14, 14]] [1, 512, 7, 7] 1,180,160 Flatten-59 [[1, 512, 7, 7]] [1, 25088] 0 Linear-7 [[1, 25088]] [1, 64] 1,605,696 Linear-8 [[1, 64]] [1, 4] 260 =========================================================================== Total params: 3,201,540 Trainable params: 3,201,540 Non-trainable params: 0 --------------------------------------------------------------------------- Input size (MB): 0.57 Forward/backward pass size (MB): 10.72 Params size (MB): 12.21 Estimated Total Size (MB): 23.51 -----------------------------------------------------
…
